Model: "functional"
┏━━━━━━━━━━━━━━━━━━━━━┳━━━━━━━━━━━━━━━━━━━┳━━━━━━━━━━━━┳━━━━━━━━━━━━━━━━━━━┓
┃ Layer (type)        ┃ Output Shape      ┃    Param # ┃ Connected to      ┃
┡━━━━━━━━━━━━━━━━━━━━━╇━━━━━━━━━━━━━━━━━━━╇━━━━━━━━━━━━╇━━━━━━━━━━━━━━━━━━━┩
│ diag_01_principal_… │ (None, 1)         │          0 │ -                 │
│ (InputLayer)        │                   │            │                   │
├─────────────────────┼───────────────────┼────────────┼───────────────────┤
│ diag_02_secundario… │ (None, 1)         │          0 │ -                 │
│ (InputLayer)        │                   │            │                   │
├─────────────────────┼───────────────────┼────────────┼───────────────────┤
│ diag_03_secundario… │ (None, 1)         │          0 │ -                 │
│ (InputLayer)        │                   │            │                   │
├─────────────────────┼───────────────────┼────────────┼───────────────────┤
│ diag_04_secundario… │ (None, 1)         │          0 │ -                 │
│ (InputLayer)        │                   │            │                   │
├─────────────────────┼───────────────────┼────────────┼───────────────────┤
│ diag_05_secundario… │ (None, 1)         │          0 │ -                 │
│ (InputLayer)        │                   │            │                   │
├─────────────────────┼───────────────────┼────────────┼───────────────────┤
│ diag_06_secundario… │ (None, 1)         │          0 │ -                 │
│ (InputLayer)        │                   │            │                   │
├─────────────────────┼───────────────────┼────────────┼───────────────────┤
│ diag_07_secundario… │ (None, 1)         │          0 │ -                 │
│ (InputLayer)        │                   │            │                   │
├─────────────────────┼───────────────────┼────────────┼───────────────────┤
│ diag_08_secundario… │ (None, 1)         │          0 │ -                 │
│ (InputLayer)        │                   │            │                   │
├─────────────────────┼───────────────────┼────────────┼───────────────────┤
│ diag_09_secundario… │ (None, 1)         │          0 │ -                 │
│ (InputLayer)        │                   │            │                   │
├─────────────────────┼───────────────────┼────────────┼───────────────────┤
│ diag_10_secundario… │ (None, 1)         │          0 │ -                 │
│ (InputLayer)        │                   │            │                   │
├─────────────────────┼───────────────────┼────────────┼───────────────────┤
│ diag_11_secundario… │ (None, 1)         │          0 │ -                 │
│ (InputLayer)        │                   │            │                   │
├─────────────────────┼───────────────────┼────────────┼───────────────────┤
│ diag_12_secundario… │ (None, 1)         │          0 │ -                 │
│ (InputLayer)        │                   │            │                   │
├─────────────────────┼───────────────────┼────────────┼───────────────────┤
│ diag_13_secundario… │ (None, 1)         │          0 │ -                 │
│ (InputLayer)        │                   │            │                   │
├─────────────────────┼───────────────────┼────────────┼───────────────────┤
│ diag_14_secundario… │ (None, 1)         │          0 │ -                 │
│ (InputLayer)        │                   │            │                   │
├─────────────────────┼───────────────────┼────────────┼───────────────────┤
│ diag_15_secundario… │ (None, 1)         │          0 │ -                 │
│ (InputLayer)        │                   │            │                   │
├─────────────────────┼───────────────────┼────────────┼───────────────────┤
│ diag_16_secundario… │ (None, 1)         │          0 │ -                 │
│ (InputLayer)        │                   │            │                   │
├─────────────────────┼───────────────────┼────────────┼───────────────────┤
│ diag_17_secundario… │ (None, 1)         │          0 │ -                 │
│ (InputLayer)        │                   │            │                   │
├─────────────────────┼───────────────────┼────────────┼───────────────────┤
│ proced_01_principa… │ (None, 1)         │          0 │ -                 │
│ (InputLayer)        │                   │            │                   │
├─────────────────────┼───────────────────┼────────────┼───────────────────┤
│ proced_02_secundar… │ (None, 1)         │          0 │ -                 │
│ (InputLayer)        │                   │            │                   │
├─────────────────────┼───────────────────┼────────────┼───────────────────┤
│ proced_03_secundar… │ (None, 1)         │          0 │ -                 │
│ (InputLayer)        │                   │            │                   │
├─────────────────────┼───────────────────┼────────────┼───────────────────┤
│ proced_04_secundar… │ (None, 1)         │          0 │ -                 │
│ (InputLayer)        │                   │            │                   │
├─────────────────────┼───────────────────┼────────────┼───────────────────┤
│ proced_05_secundar… │ (None, 1)         │          0 │ -                 │
│ (InputLayer)        │                   │            │                   │
├─────────────────────┼───────────────────┼────────────┼───────────────────┤
│ proced_06_secundar… │ (None, 1)         │          0 │ -                 │
│ (InputLayer)        │                   │            │                   │
├─────────────────────┼───────────────────┼────────────┼───────────────────┤
│ proced_07_secundar… │ (None, 1)         │          0 │ -                 │
│ (InputLayer)        │                   │            │                   │
├─────────────────────┼───────────────────┼────────────┼───────────────────┤
│ proced_08_secundar… │ (None, 1)         │          0 │ -                 │
│ (InputLayer)        │                   │            │                   │
├─────────────────────┼───────────────────┼────────────┼───────────────────┤
│ proced_09_secundar… │ (None, 1)         │          0 │ -                 │
│ (InputLayer)        │                   │            │                   │
├─────────────────────┼───────────────────┼────────────┼───────────────────┤
│ proced_10_secundar… │ (None, 1)         │          0 │ -                 │
│ (InputLayer)        │                   │            │                   │
├─────────────────────┼───────────────────┼────────────┼───────────────────┤
│ proced_11_secundar… │ (None, 1)         │          0 │ -                 │
│ (InputLayer)        │                   │            │                   │
├─────────────────────┼───────────────────┼────────────┼───────────────────┤
│ diag_01_principal_… │ (None, 1, 14)     │     12,068 │ diag_01_principa… │
│ (Embedding)         │                   │            │                   │
├─────────────────────┼───────────────────┼────────────┼───────────────────┤
│ diag_02_secundario… │ (None, 1, 19)     │     22,743 │ diag_02_secundar… │
│ (Embedding)         │                   │            │                   │
├─────────────────────┼───────────────────┼────────────┼───────────────────┤
│ diag_03_secundario… │ (None, 1, 17)     │     17,986 │ diag_03_secundar… │
│ (Embedding)         │                   │            │                   │
├─────────────────────┼───────────────────┼────────────┼───────────────────┤
│ diag_04_secundario… │ (None, 1, 15)     │     13,890 │ diag_04_secundar… │
│ (Embedding)         │                   │            │                   │
├─────────────────────┼───────────────────┼────────────┼───────────────────┤
│ diag_05_secundario… │ (None, 1, 13)     │     10,530 │ diag_05_secundar… │
│ (Embedding)         │                   │            │                   │
├─────────────────────┼───────────────────┼────────────┼───────────────────┤
│ diag_06_secundario… │ (None, 1, 11)     │      7,821 │ diag_06_secundar… │
│ (Embedding)         │                   │            │                   │
├─────────────────────┼───────────────────┼────────────┼───────────────────┤
│ diag_07_secundario… │ (None, 1, 10)     │      6,010 │ diag_07_secundar… │
│ (Embedding)         │                   │            │                   │
├─────────────────────┼───────────────────┼────────────┼───────────────────┤
│ diag_08_secundario… │ (None, 1, 9)      │      4,923 │ diag_08_secundar… │
│ (Embedding)         │                   │            │                   │
├─────────────────────┼───────────────────┼────────────┼───────────────────┤
│ diag_09_secundario… │ (None, 1, 8)      │      3,848 │ diag_09_secundar… │
│ (Embedding)         │                   │            │                   │
├─────────────────────┼───────────────────┼────────────┼───────────────────┤
│ diag_10_secundario… │ (None, 1, 8)      │      3,496 │ diag_10_secundar… │
│ (Embedding)         │                   │            │                   │
├─────────────────────┼───────────────────┼────────────┼───────────────────┤
│ diag_11_secundario… │ (None, 1, 8)      │      3,360 │ diag_11_secundar… │
│ (Embedding)         │                   │            │                   │
├─────────────────────┼───────────────────┼────────────┼───────────────────┤
│ diag_12_secundario… │ (None, 1, 8)      │      2,976 │ diag_12_secundar… │
│ (Embedding)         │                   │            │                   │
├─────────────────────┼───────────────────┼────────────┼───────────────────┤
│ diag_13_secundario… │ (None, 1, 8)      │      2,824 │ diag_13_secundar… │
│ (Embedding)         │                   │            │                   │
├─────────────────────┼───────────────────┼────────────┼───────────────────┤
│ diag_14_secundario… │ (None, 1, 8)      │      2,464 │ diag_14_secundar… │
│ (Embedding)         │                   │            │                   │
├─────────────────────┼───────────────────┼────────────┼───────────────────┤
│ diag_15_secundario… │ (None, 1, 8)      │      2,168 │ diag_15_secundar… │
│ (Embedding)         │                   │            │                   │
├─────────────────────┼───────────────────┼────────────┼───────────────────┤
│ diag_16_secundario… │ (None, 1, 8)      │      2,032 │ diag_16_secundar… │
│ (Embedding)         │                   │            │                   │
├─────────────────────┼───────────────────┼────────────┼───────────────────┤
│ diag_17_secundario… │ (None, 1, 8)      │      1,912 │ diag_17_secundar… │
│ (Embedding)         │                   │            │                   │
├─────────────────────┼───────────────────┼────────────┼───────────────────┤
│ proced_01_principa… │ (None, 1, 9)      │      3,285 │ proced_01_princi… │
│ (Embedding)         │                   │            │                   │
├─────────────────────┼───────────────────┼────────────┼───────────────────┤
│ proced_02_secundar… │ (None, 1, 9)      │      3,249 │ proced_02_secund… │
│ (Embedding)         │                   │            │                   │
├─────────────────────┼───────────────────┼────────────┼───────────────────┤
│ proced_03_secundar… │ (None, 1, 8)      │      2,320 │ proced_03_secund… │
│ (Embedding)         │                   │            │                   │
├─────────────────────┼───────────────────┼────────────┼───────────────────┤
│ proced_04_secundar… │ (None, 1, 8)      │      1,800 │ proced_04_secund… │
│ (Embedding)         │                   │            │                   │
├─────────────────────┼───────────────────┼────────────┼───────────────────┤
│ proced_05_secundar… │ (None, 1, 8)      │      1,704 │ proced_05_secund… │
│ (Embedding)         │                   │            │                   │
├─────────────────────┼───────────────────┼────────────┼───────────────────┤
│ proced_06_secundar… │ (None, 1, 8)      │      1,616 │ proced_06_secund… │
│ (Embedding)         │                   │            │                   │
├─────────────────────┼───────────────────┼────────────┼───────────────────┤
│ proced_07_secundar… │ (None, 1, 8)      │      1,512 │ proced_07_secund… │
│ (Embedding)         │                   │            │                   │
├─────────────────────┼───────────────────┼────────────┼───────────────────┤
│ proced_08_secundar… │ (None, 1, 8)      │      1,448 │ proced_08_secund… │
│ (Embedding)         │                   │            │                   │
├─────────────────────┼───────────────────┼────────────┼───────────────────┤
│ proced_09_secundar… │ (None, 1, 8)      │      1,408 │ proced_09_secund… │
│ (Embedding)         │                   │            │                   │
├─────────────────────┼───────────────────┼────────────┼───────────────────┤
│ proced_10_secundar… │ (None, 1, 8)      │      1,320 │ proced_10_secund… │
│ (Embedding)         │                   │            │                   │
├─────────────────────┼───────────────────┼────────────┼───────────────────┤
│ proced_11_secundar… │ (None, 1, 8)      │      1,248 │ proced_11_secund… │
│ (Embedding)         │                   │            │                   │
├─────────────────────┼───────────────────┼────────────┼───────────────────┤
│ diag_01_principal_… │ (None, 14)        │          0 │ diag_01_principa… │
│ (Flatten)           │                   │            │                   │
├─────────────────────┼───────────────────┼────────────┼───────────────────┤
│ diag_02_secundario… │ (None, 19)        │          0 │ diag_02_secundar… │
│ (Flatten)           │                   │            │                   │
├─────────────────────┼───────────────────┼────────────┼───────────────────┤
│ diag_03_secundario… │ (None, 17)        │          0 │ diag_03_secundar… │
│ (Flatten)           │                   │            │                   │
├─────────────────────┼───────────────────┼────────────┼───────────────────┤
│ diag_04_secundario… │ (None, 15)        │          0 │ diag_04_secundar… │
│ (Flatten)           │                   │            │                   │
├─────────────────────┼───────────────────┼────────────┼───────────────────┤
│ diag_05_secundario… │ (None, 13)        │          0 │ diag_05_secundar… │
│ (Flatten)           │                   │            │                   │
├─────────────────────┼───────────────────┼────────────┼───────────────────┤
│ diag_06_secundario… │ (None, 11)        │          0 │ diag_06_secundar… │
│ (Flatten)           │                   │            │                   │
├─────────────────────┼───────────────────┼────────────┼───────────────────┤
│ diag_07_secundario… │ (None, 10)        │          0 │ diag_07_secundar… │
│ (Flatten)           │                   │            │                   │
├─────────────────────┼───────────────────┼────────────┼───────────────────┤
│ diag_08_secundario… │ (None, 9)         │          0 │ diag_08_secundar… │
│ (Flatten)           │                   │            │                   │
├─────────────────────┼───────────────────┼────────────┼───────────────────┤
│ diag_09_secundario… │ (None, 8)         │          0 │ diag_09_secundar… │
│ (Flatten)           │                   │            │                   │
├─────────────────────┼───────────────────┼────────────┼───────────────────┤
│ diag_10_secundario… │ (None, 8)         │          0 │ diag_10_secundar… │
│ (Flatten)           │                   │            │                   │
├─────────────────────┼───────────────────┼────────────┼───────────────────┤
│ diag_11_secundario… │ (None, 8)         │          0 │ diag_11_secundar… │
│ (Flatten)           │                   │            │                   │
├─────────────────────┼───────────────────┼────────────┼───────────────────┤
│ diag_12_secundario… │ (None, 8)         │          0 │ diag_12_secundar… │
│ (Flatten)           │                   │            │                   │
├─────────────────────┼───────────────────┼────────────┼───────────────────┤
│ diag_13_secundario… │ (None, 8)         │          0 │ diag_13_secundar… │
│ (Flatten)           │                   │            │                   │
├─────────────────────┼───────────────────┼────────────┼───────────────────┤
│ diag_14_secundario… │ (None, 8)         │          0 │ diag_14_secundar… │
│ (Flatten)           │                   │            │                   │
├─────────────────────┼───────────────────┼────────────┼───────────────────┤
│ diag_15_secundario… │ (None, 8)         │          0 │ diag_15_secundar… │
│ (Flatten)           │                   │            │                   │
├─────────────────────┼───────────────────┼────────────┼───────────────────┤
│ diag_16_secundario… │ (None, 8)         │          0 │ diag_16_secundar… │
│ (Flatten)           │                   │            │                   │
├─────────────────────┼───────────────────┼────────────┼───────────────────┤
│ diag_17_secundario… │ (None, 8)         │          0 │ diag_17_secundar… │
│ (Flatten)           │                   │            │                   │
├─────────────────────┼───────────────────┼────────────┼───────────────────┤
│ proced_01_principa… │ (None, 9)         │          0 │ proced_01_princi… │
│ (Flatten)           │                   │            │                   │
├─────────────────────┼───────────────────┼────────────┼───────────────────┤
│ proced_02_secundar… │ (None, 9)         │          0 │ proced_02_secund… │
│ (Flatten)           │                   │            │                   │
├─────────────────────┼───────────────────┼────────────┼───────────────────┤
│ proced_03_secundar… │ (None, 8)         │          0 │ proced_03_secund… │
│ (Flatten)           │                   │            │                   │
├─────────────────────┼───────────────────┼────────────┼───────────────────┤
│ proced_04_secundar… │ (None, 8)         │          0 │ proced_04_secund… │
│ (Flatten)           │                   │            │                   │
├─────────────────────┼───────────────────┼────────────┼───────────────────┤
│ proced_05_secundar… │ (None, 8)         │          0 │ proced_05_secund… │
│ (Flatten)           │                   │            │                   │
├─────────────────────┼───────────────────┼────────────┼───────────────────┤
│ proced_06_secundar… │ (None, 8)         │          0 │ proced_06_secund… │
│ (Flatten)           │                   │            │                   │
├─────────────────────┼───────────────────┼────────────┼───────────────────┤
│ proced_07_secundar… │ (None, 8)         │          0 │ proced_07_secund… │
│ (Flatten)           │                   │            │                   │
├─────────────────────┼───────────────────┼────────────┼───────────────────┤
│ proced_08_secundar… │ (None, 8)         │          0 │ proced_08_secund… │
│ (Flatten)           │                   │            │                   │
├─────────────────────┼───────────────────┼────────────┼───────────────────┤
│ proced_09_secundar… │ (None, 8)         │          0 │ proced_09_secund… │
│ (Flatten)           │                   │            │                   │
├─────────────────────┼───────────────────┼────────────┼───────────────────┤
│ proced_10_secundar… │ (None, 8)         │          0 │ proced_10_secund… │
│ (Flatten)           │                   │            │                   │
├─────────────────────┼───────────────────┼────────────┼───────────────────┤
│ proced_11_secundar… │ (None, 8)         │          0 │ proced_11_secund… │
│ (Flatten)           │                   │            │                   │
├─────────────────────┼───────────────────┼────────────┼───────────────────┤
│ edad_input          │ (None, 1)         │          0 │ -                 │
│ (InputLayer)        │                   │            │                   │
├─────────────────────┼───────────────────┼────────────┼───────────────────┤
│ sexo_input          │ (None, 1)         │          0 │ -                 │
│ (InputLayer)        │                   │            │                   │
├─────────────────────┼───────────────────┼────────────┼───────────────────┤
│ feature_concatenat… │ (None, 272)       │          0 │ diag_01_principa… │
│ (Concatenate)       │                   │            │ diag_02_secundar… │
│                     │                   │            │ diag_03_secundar… │
│                     │                   │            │ diag_04_secundar… │
│                     │                   │            │ diag_05_secundar… │
│                     │                   │            │ diag_06_secundar… │
…
